…
I tensorflow/core/common_runtime/gpu/gpu_device.cc:906] DMA: 0 
I tensorflow/core/common_runtime/gpu/gpu_device.cc:916] 0:   Y 
I tensorflow/core/common_runtime/gpu/gpu_device.cc:975] Creating TensorFlow device (/gpu:0) -> (device: 0, name: Tesla K80, pci bus id: 0000:00:1e.0)
____________________________________________________________________________________________________
Layer (type)                     Output Shape          Param #     Connected to                     
====================================================================================================
input_1 (InputLayer)             (None, 32, 32, 3)     0                                            
____________________________________________________________________________________________________
block1_conv1 (Convolution2D)     (None, 32, 32, 64)    1792        input_1[0][0]                    
____________________________________________________________________________________________________
block1_conv2 (Convolution2D)     (None, 32, 32, 64)    36928       block1_conv1[0][0]               
____________________________________________________________________________________________________
block1_pool (MaxPooling2D)       (None, 16, 16, 64)    0           block1_conv2[0][0]               
____________________________________________________________________________________________________
block2_conv1 (Convolution2D)     (None, 16, 16, 128)   73856       block1_pool[0][0]                
____________________________________________________________________________________________________
block2_conv2 (Convolution2D)     (None, 16, 16, 128)   147584      block2_conv1[0][0]               
____________________________________________________________________________________________________
block2_pool (MaxPooling2D)       (None, 8, 8, 128)     0           block2_conv2[0][0]               
____________________________________________________________________________________________________
block3_conv1 (Convolution2D)     (None, 8, 8, 256)     295168      block2_pool[0][0]                
____________________________________________________________________________________________________
block3_conv2 (Convolution2D)     (None, 8, 8, 256)     590080      block3_conv1[0][0]               
____________________________________________________________________________________________________
block3_conv3 (Convolution2D)     (None, 8, 8, 256)     590080      block3_conv2[0][0]               
____________________________________________________________________________________________________
block3_pool (MaxPooling2D)       (None, 4, 4, 256)     0           block3_conv3[0][0]               
____________________________________________________________________________________________________
flatten_1 (Flatten)              (None, 4096)          0           block3_pool[0][0]                
____________________________________________________________________________________________________
dense_1 (Dense)                  (None, 256)           1048832     flatten_1[0][0]                  
____________________________________________________________________________________________________
dropout_1 (Dropout)              (None, 256)           0           dense_1[0][0]                    
____________________________________________________________________________________________________
dense_2 (Dense)                  (None, 10)            2570        dropout_1[0][0]                  
====================================================================================================
Total params: 2,786,890
Trainable params: 2,786,890
Non-trainable params: 0
____________________________________________________________________________________________________
Epoch 1/50
50000/50000 [==============================] - 64s - loss: 1.6197 - acc: 0.8991 - val_loss: 1.6118 - val_acc: 0.9000
…
